Assets/RollerBall.onnx (onnx, 73663 bytes, 7 tensors)

action_model._continuous_distribution.log_sigma f4 [1, 2]
00000000: 21b4 dabe 9071 18bf
-0.42715552 -0.5954828

action_model._continuous_distribution.mu.bias f4 [2]
00000000: 85f1 e1bb 6a2f b33b
-0.0068952464 0.0054682987

action_model._continuous_distribution.mu.weight f4 [2, 128]
00000000: c434 71bc 092a 8abc 74fb 693d 9f17 62ba
00000010: 05c0 6f3d 7f02 d63d 4fe6 a53a cb5f 05bd
00000020: e574 a43d 8597 873d 88db 36bd d334 8ebd
00000030: 44f8 36bd c83c acbc 1855 50bd bc38 be3d
00000040: 8004 a33d be65 91bd 570c a73b 997d f53d
00000050: dea4 b4bd 6acc 023e 6d4c 253d 4d87 cfbd
00000060: 238b 88bd 5c21 70bb 4427 74ba 69b9 94bd
00000070: 53ab 733d e5d8 043e f262 54bd 00db d13d
00000080: 2f71 f3bd af9d aabc d20e 643d d54c 7fbd
00000090: d04e aebb a918 27bd e273 8c3c fa93 f73d
000000a0: 163a 0c3d 82cf afbd 95ac 5a3c 33a8 023b
000000b0: 917c ec3d 4bb7 46bd 1511 3fbd ed2f 8a3d
000000c0: e8ee 92bd 013b d83d 4208 14bd ae23 e3bd
000000d0: f2e6 88bc e9d5 c53d adfd 25bb 6020 723d
000000e0: ff57 983d cb2f 7c3d 0672 eb3d 7d22 7bbc
000000f0: 6156 25bd edcb 9fbd 2bf4 d23c 0cdc b8bc
00000100: 2131 af3c 476e fd3d d26d 013d 75f7 41bd
00000110: 9ec8 ea3c ac2b 09bc 32bb bcbb 2f97 e7bc
00000120: 78b9 f53d a2cf 623d e70c 68bd 5403 bbbd
00000130: 292d 86bd f8df 143d 0de2 1cbd 5caf 13bd
00000140: 1b77 a8bd 8fa1 cb3b 2f21 c2bd 0054 3e3d
00000150: 9585 9b3d 3d78 34bd b021 c53d 99e5 263d
00000160: c23e ecbb 4357 08bd f2b5 853d 1dfc a93d
00000170: 83ae b73d 58a3 88bd 21d2 a8bd eb8e a8bd
00000180: d147 833d 8699 3ebd 2a39 1cbd a9f8 69bd
00000190: f681 33bd ab16 17be 78f3 ccbb 90e5 99bd
000001a0: 5225 1abd 4300 213d 8750 8bbd 2316 fbbb
000001b0: 6e9b 18bd 95a4 e4bc 8e5d 53bc 1708 8bbd
000001c0: 8bfc 91bd 9e1c 573d 835f 973d 3e49 b73d
000001d0: a4b8 9e3d 75b9 9cbd 6892 0fbd 6b4c a6bd
000001e0: 0b85 9b3d 7258 ee3d 7956 e4bd 7f39 efbd
000001f0: ac5b 1c3d 7515 8db8 5eb6 503d ac2a a53c
00000200: 5f4e 413d 4f6c 803a 0957 083d 14c3 cb3c
00000210: d66d 47bc 595a fe3c 2b19 203e 43de fabc
00000220: 45ac d3bd 8ffd a2bd 6f3c 08bd fe55 8bbd
00000230: 3ac1 603b a66d 1dbe 0641 d23d bb45 05bd
00000240: 43de b0bd c479 2ebb 2a2a ca3d 8bd4 58bd
00000250: 62c9 053c b66a d63b 8ba0 663d 0dc8 dcbc
00000260: 1d33 8d3a 9174 9b3d 4b96 c3bc daf2 c9bd
00000270: 683f 2d3d bf2d 23bd 670e 1fbd 87a4 13bd
00000280: c6ac a1bb db3a 293d fd14 4b3d 7475 7abd
00000290: 52c3 a6bd 2f5e 45bd e84a 7bbd 5d8a 38bd
000002a0: 8b59 813c d4a3 c6bd 3542 883c 4390 8d3d
000002b0: ac26 ec3c 7b65 b33c f5cb 06bd 6f7b f23c
000002c0: 4aed 6c3d 909e 2d3d c9f9 3d3d 77ed eabb
000002d0: 4846 23bb a55f 8cbd 0047 a8bb afaf d2bc
000002e0: 988c f5bc 8bdd 0c3c 87d9 223d 9415 553d
000002f0: a851 103d a64d 663d 19a0 9b3d 52e2 8a3d
00000300: 56fd 04bd c829 793c c1e0 873d e6c6 febd
00000310: 105f 47bd 6836 bbbd 12c0 8b3d 9b65 65bd
00000320: afa1 2a3d b42a 103d 78b2 8ebc f457 05bd
00000330: a06c d53d 28e8 06be 80fb 843c 7517 ec3d
00000340: 4af4 63bc 1e9d 923d 4832 37bc d4d0 4dbd
00000350: 031d e0bc d71b b3bb 5cd1 e8bc 1833 d8bc
00000360: 7afa febc 6ea5 883d a0fc d83d 8483 1cbd
00000370: e0ad c9bc df84 d4bd ddbc cb3c 21e6 653d
00000380: 821b 0d3d 418d c73d 248b 7cbd 0b2c e93b
00000390: c1d0 0c3e 9e05 8dbd 8f35 17be e247 393d
000003a0: 2f71 cf3d 9522 a23d c019 be3b f39e 15be
000003b0: ef7d a43c e78e 35bd 0472 073d acf9 c23d
000003c0: 4435 49bd ba11 bcbc 186d 973c 25e2 60bd
000003d0: bcfd 6cbc ad2b 913d 4f70 3abc 1400 03bd
000003e0: 1caa 8ebd 1cbc a6bc 0de0 f4bc 89bf 0ebd
000003f0: 282f 6cbc e7ff d9bd 2d30 25bc 705e fc3d
-0.014722053 -0.016865747 0.05712457 -0.00086247356 0.058532733 0.10449695 0.0012657138 -0.03256206
0.08030108 0.06620697 -0.044642955 -0.06943669 -0.04467036 -0.021025077 -0.0508624 0.09288165
0.07959843 -0.07099484 0.0050979066 0.119868465 -0.088205084 0.1277329 0.04035609 -0.101332285
-0.06667163 -0.0036640977 -0.00093137124 -0.07261927 0.05948956 0.12973364 -0.051852174 0.10246849
-0.118868224 -0.020827143 0.055678196 -0.062329132 -0.005319454 -0.040795002 0.017145101 0.12088771
0.034235083 -0.08584501 0.013346811 0.001993668 0.11547197 -0.048514646 -0.04664715 0.06747422
-0.07174474 0.10558129 -0.036140688 -0.1109079 -0.016711686 0.09659941 -0.0025328205 0.059112906
0.07438659 0.061569016 0.114963576 -0.015328047 -0.04036558 -0.07802568 0.025751194 -0.022565864
0.021385731 0.12374549 0.031598873 -0.047355134 0.028660115 -0.008372229 -0.00575962 -0.028270332
0.11998266 0.055373795 -0.05665293 -0.09131494 -0.06551582 0.036346406 -0.038301516 -0.036055908
-0.082258426 0.0062143276 -0.094789855 0.046466827 0.07593838 -0.04405998 0.09625566 0.040746305
-0.0072096298 -0.033286344 0.06528844 0.0830004 0.08968832 -0.0667178 -0.08243204 -0.082303844
0.06410182 -0.04653313 -0.038140453 -0.057121906 -0.043825112 -0.14754741 -0.0062546097 -0.07514489
-0.037633248 0.03930689 -0.06802469 -0.007662551 -0.037257604 -0.02791051 -0.012900723 -0.067886524
-0.07128247 0.052517526 0.07391264 0.08949517 0.07750061 -0.076525606 -0.035051733 -0.08120044
0.07593735 0.11637963 -0.11149306 -0.116808884 0.038173363 -6.7274006e-05 0.05095517 0.02016195
0.04719388 0.0009797903 0.03328613 0.024873294 -0.012172183 0.03104894 0.15634601 -0.03062356
-0.10335592 -0.07958519 -0.03326076 -0.06803511 0.003429486 -0.15373859 0.102663085 -0.032537203
-0.08636143 -0.002662287 0.098713234 -0.05293707 0.008165689 0.0065434827 0.05630545 -0.02695086
0.0010772679 0.07590593 -0.023875376 -0.098607734 0.042296797 -0.03983855 -0.038832095 -0.036045577
-0.0049339263 0.041315895 0.049580563 -0.06114717 -0.08142723 -0.048185524 -0.061350733 -0.04505383
0.015789768 -0.096992165 0.016633132 0.06912281 0.028827034 0.021898976 -0.032909352 0.029599873
0.057843484 0.042387545 0.04638079 -0.0071694213 -0.0024913717 -0.0685418 -0.005135417 -0.025718538
-0.029974267 0.008597742 0.03975823 0.05202253 0.035234123 0.056226395 0.075988956 0.067814484
-0.032468162 0.015207715 0.06634665 -0.124402806 -0.048674643 -0.091412365 0.06823744 -0.0560051
0.0416581 0.035196975 -0.017419085 -0.03255458 0.10421109 -0.13174498 0.016233206 0.115279116
-0.0139132235 0.07158874 -0.011181422 -0.050247982 -0.027357584 -0.0054659653 -0.028420143 -0.02639155
-0.031125296 0.06672178 0.105950594 -0.03821136 -0.024619043 -0.10376906 0.02487033 0.05612767
0.03445006 0.09743739 -0.061656132 0.007115846 0.13751508 -0.06885837 -0.14766525 0.04523457
0.1012901 0.07916752 0.0058014095 -0.14611416 0.020079581 -0.044325735 0.03306772 0.095202774
-0.049123064 -0.022957671 0.018484637 -0.05490317 -0.014464792 0.070884086 -0.0113793155 -0.031982496
-0.069660395 -0.02035337 -0.029891992 -0.03485063 -0.01441554 -0.106445126 -0.010082287 0.123227

network_body._body_endoder.seq_layers.0.bias f4 [128]
00000000: 7358 b6bc 3bfa f6bd e79d 2c3d 1fdb f93a
00000010: 1351 f9bc ffe4 443d 4e1c 2bbe c969 663d
00000020: fc67 d13d 74da d13c 5eef 823d 1946 a23c
00000030: c8dc 933d f1b9 d23b 0000 dcbd 921f 733c
00000040: c440 553d 784e 7c3c 046a 883d e3fd 5e3d
00000050: 857a ca3d 5531 6abd 87de 303d 7de7 f73c
00000060: 5223 ac3d 9470 20bc ae88 26be d9df cf3d
00000070: a812 11bd cc18 013b c5f0 353d da7a 5b3c
00000080: 18d3 33bc edb6 933d 1290 c63c 7636 1dbe
00000090: bf1f d2bc 6fee e6bd 12e6 313c fd7c 9d3d
000000a0: d450 22bd 4fe2 a13a e7a7 5abd fb6d 753c
000000b0: 3ff1 e93d db63 b93c 2465 f03b 9fa9 6dbc
000000c0: 2ab4 2e3e 4884 913d 84a5 a33c a5c0 093d
000000d0: 3abc 90bd 2df2 e1bd 9027 6a3d 9046 38bd
000000e0: 3c93 e53c 4246 2cbd 35ef 86bd 4492 fa3c
000000f0: d627 a2bd 6ef8 133e ddeb 8d3b cf81 fdbc
00000100: c546 c4bd 2601 303d a26b d63c a5bd b6bd
00000110: 536e fc3d b76c 833d 214d 953d 235d c33d
00000120: 30cb 8cbc 6fe4 583d f984 dd3c 7c59 cfba
00000130: 8dc9 e23d 39c7 c2bc 788a 2ebe fa84 b93c
00000140: 008f d4bc 6176 a93c 8468 013e 7b82 b8bc
00000150: fae7 0cbd dad1 f03c 7401 223d b8b8 2ebd
00000160: f992 8f3d dd4c 29bc 3d70 953d ec57 053d
00000170: f412 bc3d ad68 a33d 4bed 9e3c 8945 493d
00000180: ecbf ed3c 602a 393d 1f7d a7bb b0df 983b
00000190: 44c4 12be 22ef e4bd 4ddb 9e3c 9187 d83b
000001a0: 145d e7bc fb0a 2f3e b56a 14bd 89e2 03be
000001b0: 878a 363d 5704 4cbd 8b78 8e3c f8cd 74bd
000001c0: d1d4 273e a3b3 153c 4141 813c 9a40 6b3d
000001d0: 827e a9bd 02e6 dbbd 4823 c7bc 658e a8bd
000001e0: 6a3e 19bc 802f 2abd a751 823d d819 e9bd
000001f0: 2218 063e e2f0 6a3d 4311 9bbd c5bd 113d
-0.022258973 -0.120594464 0.042142775 0.0019062496 -0.030434167 0.04806995 -0.16710016 0.05625323
0.102249116 0.025616862 0.06393312 0.019808816 0.07219845 0.0064308573 -0.107421875 0.01483907
0.05206372 0.015399568 0.06660846 0.054441344 0.0988665 -0.057175953 0.04318097 0.03026175
0.08405174 -0.009792466 -0.16263077 0.101501174 -0.035418183 0.0019698618 0.04441907 0.013395989
-0.010975622 0.07212625 0.02423862 -0.15352806 -0.025649903 -0.11275946 0.010858076 0.07689855
-0.039627865 0.001235077 -0.05338278 0.014979835 0.11422967 0.022630623 0.0073362757 -0.014505773
0.17060915 0.07105309 0.019976385 0.033630986 -0.07067151 -0.110325195 0.057166636 -0.04498917
0.028024308 -0.04205919 -0.06588594 0.030587323 -0.07917754 0.14450237 0.0043310956 -0.030945687
-0.09583811 0.042969845 0.02617437 -0.089228906 0.1232573 0.0641722 0.07290102 0.09539249
-0.017186731 0.052952226 0.027040945 -0.0015819515 0.11073599 -0.023776637 -0.17045009 0.022646416
-0.025947094 0.02068633 0.12637526 -0.022523155 -0.034400918 0.02939694 0.039552167 -0.04265663
0.07010455 -0.010333267 0.072967984 0.032554552 0.091833025 0.0797895 0.01940026 0.04913858
0.02902218 0.045206428 -0.005111351 0.0046653375 -0.14332682 -0.111784235 0.01939168 0.0066079576
-0.028242625 0.17094032 -0.036234576 -0.12879385 0.044565704 -0.049808826 0.017391464 -0.05976674
0.16389777 0.009137067 0.015778186 0.057434656 -0.082760826 -0.1073723 -0.024308816 -0.082302846
-0.00935326 -0.041549206 0.0636323 -0.113818824 0.13095143 0.05735863 -0.07571652 0.03558137

network_body._body_endoder.seq_layers.0.weight f4 [128, 8]
00000000: 6e60 bcbb f4bd b1be 0393 3d3e 2f6e 743d
00000010: 828c 29be 1b0e 30be 73a2 5cbe 199c 0abd
00000020: b025 0abd 1b67 34bf c44c b63e dc7d 0fbb
00000030: 9a1b 903e 3ed1 023f 7290 e5bd f6e6 24be
00000040: fcde 54bf b06e a63e 15c8 e13d ee8f 6b3e
00000050: cff5 27bd 0d7c 39bf fb75 703e 5a70 da3e
00000060: 1347 7cbe 070b 68bd 4cac 953d 4bdd b83e
00000070: 8e5e e33d e3ff 153e edb7 ca3d 2e18 40be
00000080: caa4 ea3d db2a a33e b58b 1cbd dcbf 2bbe
00000090: ac78 133e 09ad edbe e421 71be 698c 42bd
000000a0: c3db 6b3c 95a4 2e3f 1e78 1abe 783f 25be
000000b0: d490 4dbf e837 5cba f074 f3be 4d54 a3be
000000c0: 6363 023e f8bb 073e 1a7c 063f eac5 1b3e
000000d0: 87f7 d5bd 7e0f 093e 14ee e23a 3c12 27bf
000000e0: 8010 89be 399c d23e 12ba dcbe 5996 b43e
000000f0: 2dba 083f 40ab 053e eb8e 023e b287 06be
00000100: 29dc 913e cc43 9cbe 6f26 263f 457a c83c
00000110: 0858 fb3c 46a4 39bf 2808 e2bd 3c4b 363e
00000120: 9492 8f3e 2d05 803f 7cfa a23e ff83 54be
00000130: c636 8fbd 1f05 c73e 7d59 0c3e d96f 2bbe
00000140: 42fc de3d 097e a73e d913 3a3c 381d ab3e
00000150: 2ae0 02bf 1008 41bf cbdd 95be f680 dbbc
00000160: 2b9e f43e fde9 833e 02ce 9b3e 9dd3 373f
00000170: 5485 bb3e 0a49 833e b9d5 c9bd bac4 3ebf
00000180: 0bf1 b1bd 142c 8bbe 44c9 263f 7fa3 6cbe
00000190: 48c9 c43d 7809 b2be 8837 ae3d d0e1 6dbe
000001a0: 599d 42bf 73ae 4abe 2b0c 963e 5433 18be
000001b0: b4fb 013f 3358 a5be 09aa 55be 3074 4fbe
000001c0: 6dbf 853e 581b debe e0d8 8f3d 13c5 363e
000001d0: 1728 5e3e 1ca5 f3be 8ef9 55be 7bcf 98bd
000001e0: 0589 363e 1f04 023e f331 a03e b741 33bf
000001f0: e784 413e cb0a 7f3d 33eb 8ebe af3c 5d3f
00000200: 6f2f 99bf d950 2bbf 06c2 c7be 0133 a83e
00000210: 73af 823e 5293 9dbd 8285 813e fe91 343e
00000220: 0e65 b8be 6d7e c5be 08b6 ad3e 0b56 a6bd
00000230: 7f8d 51bf 5168 95be 1b60 ca3e 9443 d93e
00000240: 15f4 a53e 2355 df3e a995 4b3f a2f7 8bbd
00000250: 991e e9bd c6e8 193e eeca 9cbe 953b 22be
00000260: a273 6bbe ca08 4a3d b093 083e fc52 05bf
00000270: 56cd 353e d2e6 b43e 408c b7bd e85e d8be
00000280: a650 403f 27a9 02bf 1070 b3be 7a5e b9be
00000290: f7e6 c9be 39e9 083d 8a15 94be 60de 40be
000002a0: f48d 5cbe fa96 10be c876 25bf ccee 7e3e
000002b0: 0a36 f93d 313c cebe ac6e fcbd 3481 c43e
000002c0: bf63 9e3e 22bd 86bd 54a6 23bf afb6 a83d
000002d0: e259 1e3f bc5d 6f3d 7099 543f 2420 ad3e
000002e0: 4eb5 873e cb04 bf3c a454 953e a605 e83d
000002f0: d880 2fbe 9bce bbbe 5f86 17bf 5050 c43e
00000300: 6b46 6ebf c7a0 913e 2565 863d 1625 243f
00000310: a294 6a3e 789d 1a3f de32 673f ec60 d2be
00000320: e024 ad3e fbf3 43be 058e 773e c892 803e
00000330: 8d41 cbbd 1f1e c5be 1be1 22be 49ba 5b3e
00000340: 0145 86be e894 45bf 2db2 653e 257a e7bc
00000350: 6831 a6be 776d 323f f5b9 323f f019 febe
00000360: 80b2 aa3e 2930 a3be cbd3 a33e afa2 ccbe
00000370: 53fd be3e feb1 24bf fa41 903d 3d4f 043e
00000380: 9eee cfbd f652 09bf e322 e13e 63e2 e93d
00000390: 2f50 1d3f 023c 75be 0a59 d4be e3d4 5abd
000003a0: 853e 8c3f f31a 2a3e 965e e1be 9fdc 49bf
000003b0: 3adc 1dbe d31a 09bf 2b26 083f 2ed3 1abf
000003c0: b039 193e 4b2a 063f d0f6 c4be ccda 86be
000003d0: b556 c7be e99c c53e 1076 20be 7b39 793f
000003e0: 805f 48be a315 a83d 48e1 1e3e 5d9a b73e
000003f0: a74c d3bd 5508 74be 3a9c e7be b893 5a3e
-0.0057488 -0.34715235 0.18513112 0.05967539 -0.16557506 -0.17192881 -0.21546344 -0.033840273
-0.033727348 -0.70469826 0.35605443 -0.0021895086 0.28146058 0.5110053 -0.112091914 -0.1610373
-0.8315275 0.32506323 0.11024491 0.23004124 -0.041005906 -0.7245491 0.23482506 0.42663842
-0.24636488 -0.05665114 0.07308254 0.36106333 0.11102019 0.14648394 0.09898362 -0.18759224
0.11457212 0.31868634 -0.038219173 -0.16772407 0.14401501 -0.46421078 -0.23548084 -0.047497187
0.014395657 0.6821988 -0.15084884 -0.16137493 -0.80299115 -0.00084006647 -0.47550154 -0.31900254
0.12733226 0.13255298 0.52533114 0.15212217 -0.10447603 0.13384816 0.0017313384 -0.652622
-0.267704 0.41134813 -0.4311071 0.35270956 0.5340908 0.13053608 0.12749831 -0.13137701
0.2848828 -0.30520475 0.64902395 0.024472365 0.030681625 -0.72516286 -0.11036712 0.17802137
0.28041518 1.000158 0.3183173 -0.20753478 -0.06992869 0.38871095 0.13706012 -0.16741885
0.10887958 0.32713345 0.011357271 0.3342073 -0.511233 -0.7540293 -0.29270777 -0.026794892
0.47776923 0.25764456 0.3043061 0.7180727 0.3662516 0.25641662 -0.098552175 -0.7451893
-0.086885534 -0.27182066 0.65150857 -0.23109244 0.09608704 -0.3477285 0.085066855 -0.23230672
-0.76021343 -0.1979311 0.29306158 -0.1486333 0.50774693 -0.32293853 -0.20865645 -0.20259166
0.2612261 -0.43380237 0.070237875 0.17848615 0.2169498 -0.47586906 -0.20895979 -0.07461449
0.17825706 0.12696885 0.31288108 -0.7002215 0.18898354 0.062266152 -0.27913818 0.8642072
-1.19676 -0.6692024 -0.39015216 0.32851413 0.25524482 -0.07694115 0.2529717 0.17633817
-0.360146 -0.38573018 0.3392794 -0.0812188 -0.8185653 -0.2918115 0.39526448 0.4243437
0.32412782 0.43619642 0.7952524 -0.068343416 -0.11382789 0.15030202 -0.30623573 -0.15843041
-0.22993329 0.04932479 0.13337588 -0.5207975 0.1775411 0.35332352 -0.089622974 -0.42259908
0.7512306 -0.51039356 -0.35046434 -0.36204892 -0.39434025 0.033425543 -0.28922683 -0.1883483
-0.21538526 -0.14120093 -0.6463437 0.24895781 0.1216851 -0.40280297 -0.123257965 0.38379824
0.30935475 -0.06579043 -0.6392567 0.08237969 0.618559 0.058439 0.8304663 0.33813584
0.26505512 0.023317715 0.29166138 0.11329202 -0.17138994 -0.36681065 -0.5918941 0.38342524
-0.930762 0.28442976 0.065622605 0.6411909 0.22908261 0.6039653 0.9031199 -0.4108957
0.33817196 -0.1913604 0.2417527 0.25111985 -0.09924612 -0.38499543 -0.15906183 0.21457781
-0.2622452 -0.7718034 0.2243125 -0.028256485 -0.3245957 0.6969828 0.69815 -0.49629164
0.3333931 -0.3187268 0.31997523 -0.39967868 0.37302646 -0.64334095 0.07043834 0.12920852
-0.101529345 -0.53642213 0.4397193 0.11420133 0.61450475 -0.23948672 -0.4147418 -0.05342568
1.095658 0.16611843 -0.44017476 -0.78852266 -0.15416041 -0.53556556 0.5318324 -0.60478485
0.14963412 0.52408284 -0.38469553 -0.26338804 -0.3893334 0.38596275 -0.15670037 0.97353333
-0.1956768 0.08207252 0.15515625 0.35859957 -0.10317355 -0.23831303 -0.4523638 0.21345413

network_body._body_endoder.seq_layers.2.bias f4 [128]
00000000: 3d06 a93c 1a38 cdbc 04f0 833d 1430 58bd
00000010: 4d5a 0fbd cf39 b83d 1323 f23d 8ea9 74bd
00000020: 8874 8d3d 7349 2d3d c4b3 9b3d 8e90 b13d
00000030: 5e87 54bd 9689 f73d f041 de3c d8e8 313d
00000040: f48d 423d 10bf ab3d 50e2 ad3c b615 1b3d
00000050: cb93 7f3d cb8f 093e 629e 843d 58e6 9d3b
00000060: 3d61 52bd 8601 723d 3868 063c 786d f13c
00000070: b152 0c3d 7729 5b3d 52a1 0bbc e5de af3d
00000080: f6a5 d43d 32e9 8b3c 740d 1c3d 637f 783c
00000090: cf79 ae3c 3cb0 9b39 f086 c03c 6015 a23d
000000a0: cef9 88bd f5bd 0c3e a07f a8bd d348 d73c
000000b0: 9be5 b83d 02a4 7bbd d5e5 8abd 288e 633d
000000c0: 7fb0 bf3d c4de a93d 7a95 213c d769 933d
000000d0: a725 38bd 81e6 523d a792 70bd e3f9 2bbb
000000e0: 623b b33c af79 993c 39b6 b73d 21d3 ab3a
000000f0: 82d3 16bd bbc6 b43d 3dd3 963d 8b47 6b3c
00000100: e3fa cabd 7bb0 a63d 6e0c ac3d 7684 713d
00000110: 4d4b 4fbb 91fd 6c3d e18c 793d 1860 943d
00000120: 9ed7 853d e0d9 c33c f6d9 03bd bcc8 31bd
00000130: 8ac0 ca3d 8833 f43d 26b2 a6bd 7be0 db3d
00000140: ba8a 2f3c 01f1 623d 8ae9 883d 62ee 8e3d
00000150: 5aea 66bb 325f 513c ba10 fdbc 3476 0c3d
00000160: 634d 7fbd 4eac 9d3d 6bab 543d 8a92 db3c
00000170: 4639 173d af6a a63d ec96 ec3d 0d31 de3d
00000180: 8711 cd3d caaf f93d 4ac9 613b f04b 89bc
00000190: 16cc d83d cef8 183e d568 193e b6e3 ddbc
000001a0: 479c b83d fb05 843d d4b6 213c 1ebe bc3d
000001b0: 131b f3bc 1730 913c e1d1 a73c cbe6 5ebb
000001c0: 8fbb 213c 9cb4 21bc 13c1 f03c c9c2 0e3c
000001d0: 471d 1f3d e304 6f3d 0dfa f6bd 299c d73c
000001e0: e70b 4e3d ddec d33d 43fa 2a3d 0ece 5c3d
000001f0: 963e 293d 38ac 903d faf5 c6bd 9571 cc3d
0.020632857 -0.025051165 0.06442264 -0.052780226 -0.034998227 0.08995401 0.11823096 -0.059732012
0.06906992 0.042306375 0.07602647 0.0867015 -0.05188691 0.12086789 0.02713105 0.043434948
0.04749866 0.08386052 0.021226078 0.037862502 0.062396806 0.13433759 0.064755216 0.004818719
-0.051362265 0.059083484 0.008203559 0.029471144 0.03425855 0.05350634 -0.0085223485 0.08587436
0.10383217 0.01707897 0.038098767 0.01516709 0.021298317 0.0002969521 0.023501843 0.07914233
-0.066882715 0.13744338 -0.082274675 0.026279842 0.09028169 -0.061435707 -0.06782118 0.055555493
0.09359836 0.08294442 0.009862298 0.07197922 -0.044957783 0.051489357 -0.05873361 -0.0026241473
0.021878902 0.018734781 0.08970303 0.0013109186 -0.036822803 0.08826967 0.07364509 0.014360319
-0.09911134 0.0813913 0.08400808 0.058964215 -0.0031630576 0.057859007 0.06092537 0.07244891
0.06535266 0.023907602 -0.032190286 -0.043404326 0.09900005 0.11923891 -0.08139448 0.107361756
0.010714227 0.05540562 0.06685169 0.06979062 -0.00352349 0.012779044 -0.030891765 0.034292415
-0.06232966 0.0769888 0.05192129 0.026803274 0.036919855 0.08125817 0.115522236 0.108491994
0.10013109 0.12191732 0.0034452253 -0.016759843 0.10585801 0.14938661 0.14981396 -0.02708612
0.090141825 0.06446453 0.00987025 0.092159495 -0.029675996 0.017723126 0.02048582 -0.0034012075
0.009871378 -0.009869721 0.02938894 0.008713433 0.03884628 0.05835427 -0.12059412 0.02631958
0.05030432 0.103479125 0.041742574 0.053907447 0.041319452 0.07064098 -0.09714885 0.099826016

network_body._body_endoder.seq_layers.2.weight f4 [128, 128]
00000000: 5291 bbbd cbf2 b63c cd9e 2dbe d41b d8bb
00000010: 17b3 35bd cc17 ea3b 1013 843d d8eb f73d
00000020: b60f 953d aa70 b23d 9454 183e cc22 953d
00000030: 1cf1 f43d 71c9 b9bc e46e 243e f84c 03be
00000040: 2b2f 893b 02a6 95bd ab93 20bd 2224 123c
00000050: cd25 fcbd c7e5 a83d d3a7 47bd 36ea b6bc
00000060: 9918 873d b5ad 053d ae93 e9bc bb58 213e
00000070: 2ff1 83bd 43dc cebc f70a 13be e0e3 fb3d
00000080: c7cf 1ebe 5dab 02be ecde 8c3d 2c84 24be
00000090: dfae 39bd ba9a 113c cb25 763d 98e3 f13d
000000a0: 7aaa d63d efed 0d3e e026 e43d ab41 383e
000000b0: 8410 b8bb e254 063d 1954 19be 202a 363d
000000c0: c8e7 73bd a74a ee3d c7c0 da3c caa6 a9bc
000000d0: a56c f83d 34e9 56bd c1b9 18bd 2cd0 0abe
000000e0: 924e a4bd 91d3 99bd cc48 143d ab21 36be
000000f0: 4f9e 603d 69e4 f2ba 25ca 873d edaf 583e
00000100: 8a88 dabd 8947 80be 7b75 ba3d 299a 06be
00000110: a8fd 39be 9c95 0ebd 31c5 db3d feda e1bd
00000120: 3034 f63d 0aa7 1a3e 99a1 923c 824d 0b3d
00000130: f9cd ec3d afe4 b83c 4712 28bd 5c67 bd3c
00000140: cc20 463b b700 503e 41ae 59bd 1615 50bc
00000150: 9c2a e3bc 47ef a13d 1663 193d 9f20 8d3b
00000160: 07f6 02be a486 c73c d444 ecba 87bd 9dbd
00000170: 0f06 333e 89aa 263e 3a26 773c 5abc 7dbd
00000180: 656d e13c 88d9 693e 3a00 6cbd 03bd 3ebd
00000190: cdcb 2cbd 158f 0abe c5ac 29be 134b e3bc
000001a0: fd7d b33d 3554 793d cca7 c93d e2fe 0b3d
000001b0: 4927 b63c 8f66 263d 3513 cbbd a612 82be
000001c0: dfd8 f23c 3c99 48be b5f2 c0bd 862e 033e
000001d0: c190 c8bd 945d 993c d966 ad3d 1f96 75bc
000001e0: 995e 96bd cdc1 9cbd 11cd 41be fbd7 93bc
000001f0: 9aae 35be 6a94 8e3c bcaa d23d 11e7 793d
00000200: 55b1 a2bd 5c83 0b3e 9d32 f73d 976a 50bd
00000210: c389 43bb 2c8c fbbb 0239 583d 0409 02be
00000220: 1fd7 523d 5645 73be cd20 de3b 48ee 03be
00000230: 854c dcbd 438e c03c 5cc8 35bd d489 cdbd
00000240: 41d8 053d 4944 4cbd 272d a4bd 1e12 233d
00000250: 6e33 95bc fb72 ba3c 690f 19be e3bb 603e
00000260: a964 dc3d 7633 5cbd fbcb 3a3d 22f8 723b
00000270: 25a3 cbbd d41e 37be efd7 4bbe 2408 f73d
00000280: f58b 3b3e ca8f 273e ccfd c9bd 8880 31bd
00000290: c31e b0bd 67a9 0dbe 5173 4bbe 40ed babd
000002a0: 4518 cd3d 33a3 b4bc e561 9f3d 9c67 3c3d
000002b0: d6e9 ac3d 49fb 2cbd dcfa 3e3e b05f 5d3c
000002c0: e2ec bfbc 1f76 a3bd fa2b 4bbd 6550 28be
000002d0: 6d27 7ebd 0ea9 3b3d 619a 20be 2331 223d
000002e0: 2981 1f3d a971 9c3c 5573 b8bc c5fe a13d
000002f0: 6ada 573d e874 3bbe ee76 fabd 7873 fa3c
00000300: 2fd0 e73d c02e 43bd 7a3e fa3a 25b1 f0bd
00000310: 270c b23d b3b3 65bd 5aaf 3b3c 6d15 b6bd
00000320: 577c 32be a17a cebb dbd2 30be cb67 71be
00000330: 150f b53d 33b4 293e 0d9f f33d a1b3 11be
00000340: f388 cb3d 7179 02bd 9e31 0ebe 5c9a 86be
00000350: b46c 8dbc 95b3 573e 1c42 ecbd 3fa7 2d3e
00000360: 4a32 70be 31da 573e e788 663e 7cf5 c3bb
00000370: 2443 4fbe 212e 24be 22fb 5bbd cc71 673c
00000380: 58e3 2fbd bb43 fbbd 775c a9bd 340b 02be
00000390: ac0b 873d e1e5 28bd f6ea 5e3e f599 1c3d
000003a0: 7393 f9bd 1bd5 3cbe 2c99 873d 25a3 32bd
000003b0: fdb1 413c 0bb3 c33d a12d e93c 00ef 133e
000003c0: 4561 103e 3727 9b3d 2ba0 edbd afec d63d
000003d0: c322 cf3c 37d7 a4bb 41b8 82bd 2d66 003d
000003e0: 93dc d3bc 5635 593d 9cd2 b0bd 2ea6 613e
000003f0: c74d acbd f4d9 633c 6deb 983d c8fe a5bd
-0.09158577 0.02233257 -0.16955109 -0.0065951142 -0.044360247 0.00714395 0.064489484 0.121055305
0.07278387 0.08712895 0.14876014 0.072820276 0.119600505 -0.022679063 0.16057926 -0.1282233
0.004186531 -0.07307054 -0.039203327 0.008919748 -0.123118974 0.082469516 -0.048744034 -0.022328477
0.065964885 0.032636363 -0.028512802 0.15756504 -0.064424865 -0.025251513 -0.14359652 0.12299323
-0.15508948 -0.12760682 0.068784565 -0.16066045 -0.045332786 0.008886987 0.060094636 0.11810988
0.104817346 0.13860296 0.11140227 0.179938 -0.005617203 0.032795794 -0.14973487 0.044473767
-0.059547216 0.116353326 0.026703252 -0.020709414 0.12130097 -0.052468494 -0.037286524 -0.13555974
-0.080227986 -0.07511056 0.036202237 -0.17786281 0.054838475 -0.0018531206 0.06630353 0.2116086
-0.10670574 -0.25054577 0.09104439 -0.13144745 -0.18163168 -0.034810647 0.10730971 -0.110280976
0.12021673 0.15102783 0.017899321 0.034009464 0.11562724 0.022569982 -0.041033056 0.023120575
0.003023195 0.20312773 -0.053144697 -0.01270034 -0.027730279 0.07906967 0.03744801 0.0043068673
-0.12789164 0.024356194 -0.0018025883 -0.07702165 0.1748278 0.16275991 0.0150847975 -0.061947204
0.027517984 0.22836888 -0.057617404 -0.046566974 -0.042186547 -0.13531144 -0.16569813 -0.02774576
0.08764265 0.06087132 0.09846458 0.034178622 0.02223553 0.04062515 -0.09915773 -0.25404853
0.029644428 -0.19589704 -0.09421293 0.12810716 -0.097932346 0.01872138 0.08466882 -0.014989405
-0.07342262 -0.07654152 -0.18925883 -0.018047323 -0.17742386 0.017404754 0.10286471 0.061011378
-0.0794398 0.13624328 0.120702006 -0.050882902 -0.002983675 -0.007676622 0.052788742 -0.12698752
0.051474687 -0.23756918 0.0067788125 -0.12883866 -0.107567824 0.023505336 -0.04438053 -0.10036054
0.03267694 -0.04986981 -0.080164246 0.0398122 -0.018213 0.022759905 -0.14947285 0.21946673
0.10761387 -0.053760014 0.045604687 0.0037074168 -0.09943227 -0.17882854 -0.19906591 0.120620996
0.18315108 0.16363445 -0.09862861 -0.043335468 -0.08599617 -0.13834153 -0.19868208 -0.09127283
0.10014395 -0.022050476 0.07782344 0.045997247 0.08443038 -0.04223183 0.18650383 0.013511583
-0.023428384 -0.07981514 -0.049602486 -0.16436918 -0.062049318 0.04581552 -0.15683891 0.03959764
0.038941536 0.019097166 -0.022515932 0.079099216 0.05269853 -0.18306315 -0.12229715 0.030572638
0.11319005 -0.047652006 0.0019092106 -0.11752538 0.08693724 -0.056079578 0.011455381 -0.088908054
-0.17430244 -0.0063012396 -0.17267935 -0.2357475 0.08840767 0.16572647 0.11895571 -0.14228679
0.0993823 -0.031854097 -0.13886115 -0.26289642 -0.017263748 0.21064599 -0.11536047 0.1695833
-0.23456684 0.21079327 0.22513162 -0.0059801918 -0.20240456 -0.16033222 -0.053706296 0.014126252
-0.04294142 -0.12268778 -0.082695894 -0.12699586 0.06594023 -0.041234855 0.21769318 0.038232762
-0.12186327 -0.18440668 0.06621012 -0.043612618 0.011822221 0.09555634 0.02846414 0.1444664
0.14099605 0.07575839 -0.11602815 0.104943626 0.02528513 -0.0050305384 -0.063828 0.031347442
-0.025862014 0.05302938 -0.086339206 0.22036049 -0.08413272 0.013906945 0.07466779 -0.08105236
