Assets/RollerBall.onnx (onnx, 73663 bytes, 7 tensors)

action_model._continuous_distribution.log_sigma f4 [1, 2]
00000000: e4b6 d2be 97b4 e7be
-0.4115516 -0.45254967

action_model._continuous_distribution.mu.bias f4 [2]
00000000: 64ec fe3c 80e4 363d
0.03111858 0.04465151

action_model._continuous_distribution.mu.weight f4 [2, 128]
00000000: 481d 8bbd 7a9b a3bd 3d4c 083d 7e93 4e3d
00000010: be18 dabb da72 d6bd 4d75 0a3d 24f4 013e
00000020: 41f3 8ebd 2124 fe3c cb4b 033d ed69 42bc
00000030: 1a75 dfbd d9f8 353d 5e0c d7bb 64b1 133d
00000040: 94af b33d b357 a73d 93da fe3d ee9c fa3c
00000050: fb36 60bd 5d30 2d3d c219 de3d 68c1 d6bd
00000060: f12b 8bbd d8a9 c53d d9bf e2bd 8444 b3bb
00000070: 9e15 623c 3ad4 823d 8451 18be 21f2 cb3d
00000080: c5ca c43d d96b 4f3d b344 1c3e 4a08 09be
00000090: c88e a53c c228 7b3d 3ce4 f13d cf35 2ebd
000000a0: d950 ad3c 1728 063c 8123 5b3d 039c 24b8
000000b0: 120a 98bd e9ed 1dbe 55a6 cf3d f732 b5bd
000000c0: 4ac4 2e3e ef13 74bd 5e09 dc3d 3613 75bc
000000d0: c75f 8dbd 2d0d 4b3b 8242 8a3c 9093 d93c
000000e0: 2d5c 043e b8e7 ea3d d5b9 88bd de67 9cbd
000000f0: 8190 bfbd b59f fe3d c16c 203d 1e79 243d
00000100: 9c62 b4ba 7504 c83d c5ff 8fbd 7523 09be
00000110: c0ae 1abe 324e acbd f410 393d 0a26 46bd
00000120: 7a9f 3a3d e41a a73b 135a d0bd c60a 1b3d
00000130: 12e9 483c 4ed4 dc3c c382 023e fd9b 253e
00000140: c87c aabd b068 ec3d 5893 03be fe09 913d
00000150: adb9 213d 4c96 05bd 70e2 b6bd 8361 de3d
00000160: 9186 05be 1c73 b13c f2d9 0a3e 69db 8dbc
00000170: a290 b7bd 3616 2f3e 39b4 1f3d e1de a9bd
00000180: fc87 a2bd b4bf ea3c bf52 4dbc 7f5a b5bc
00000190: 0d93 b83d 08de 21bd 398d 00bd 1e71 f7bd
000001a0: 33d1 cc3c 3ef0 083d db15 34ba 019c 6d3d
000001b0: ee5f 83bd aa73 c6bd 98ef 093e 082b 4a3d
000001c0: a512 143e eb3e 69bd 62ad f23d 395b 303d
000001d0: f48d 753c 0634 74bc 4caa 06be 794f 86bc
000001e0: 6ac2 2e3d 6009 c53c c019 ee3d 1f44 c039
000001f0: 5531 cabd 2365 bebd ac56 d93d 6ab4 873d
00000200: 8ab4 493d f5eb 87bb ec8e b93d 1c3d 133d
00000210: 36b0 a3bb 42a1 333d af24 9fbd d337 1abc
00000220: 26d8 b3bd 94a8 7abc bc25 db3d 0545 48bd
00000230: 9cdb 1bbc d3e8 94bd eac4 c1bd ed62 e8bd
00000240: 11a2 e03c 5411 bdbd c4a1 0abe 6e2e 08be
00000250: b605 a9bd 7002 5e3c d1df ec3b 2482 cabc
00000260: 26e2 023e a4e4 8ebb 46d1 0c3d d45d 9dbd
00000270: 31c0 213c 8394 813d 6ebc 8f3c 5a23 973d
00000280: 32b4 e8bd a014 babd 6901 84bd 57c2 4dbd
00000290: f98d 6bbd 1ec4 07be f34d dcbc 7ae7 723d
000002a0: e239 b33d 68d1 233d 79f4 5d3d a3aa f7bd
000002b0: 3842 b03d 9abc 86bd 974c 72bd 8786 efbc
000002c0: 4ce5 603c c51a 6abd 4d15 0abc da91 623d
000002d0: 4d3a d8bc 91e1 b8bd f800 33be 6401 d13b
000002e0: 40be 0a3c d31a ccbd d640 173c 713b 9a3c
000002f0: 37e7 05bd 504a 873b 847a 72bc 42c5 47be
00000300: dac1 973d cce3 25bc 3280 cfbc ab71 94bd
00000310: 23de 18bc fc96 49bd b1cf 803d e204 3c3d
00000320: d034 9abc e5b4 a2bc cc63 ce3b 0e9f c3bd
00000330: 4158 c93d 683e a1bd 4bf7 bbbd 4ead ad3c
00000340: 6c88 c4bd 69e6 8cbd 88e6 633d 30c3 c13c
00000350: 224b 843d cb62 15bc 4a62 d8bb a638 3c3d
00000360: c712 9bbd ec60 a2bd 341b 8f3d 14a7 91bd
00000370: e755 863c c1f5 09bd 5630 c33c 6494 0fbc
00000380: 5041 b33d 9677 203d e7ca aa3d f39d 8d3d
00000390: 711f af3c 0e68 f0bc bcd8 7abd 424e 3e3c
000003a0: 4b56 eebd 73e3 34bd 0cd4 eabd b45d 873d
000003b0: 06c3 d63d f0e9 2b3d c396 02bb f4d1 3e3b
000003c0: 3038 eabd f776 f0bc 89d4 62bb fc91 9f3d
000003d0: 783b 0f3d 8e8c 72bd e1e2 c6bc 3ac9 bc3d
000003e0: bc0f b03d d046 893d 9f86 163d 4cab bc3d
000003f0: aee3 41bd a21f dd3d 0a12 15be 72fc 3bbd
-0.06792694 -0.07988639 0.03327583 0.05043363 -0.0066557815 -0.10471125 0.033803273 0.12690789
-0.06979991 0.031023087 0.032054704 -0.011866075 -0.10911007 0.044426773 -0.0065627536 0.036057845
0.08773723 0.08171024 0.124440335 0.030592408 -0.054739933 0.04228245 0.10844757 -0.10486108
-0.067954905 0.09651536 -0.11071748 -0.005470814 0.013799099 0.06388135 -0.14874846 0.09958292
0.09608988 0.05063996 0.15260582 -0.13382068 0.020209685 0.061318167 0.118111104 -0.042531785
0.021156715 0.008188269 0.053500656 -3.9245944e-05 -0.07423796 -0.15422787 0.10139147 -0.088476114
0.17067066 -0.059589323 0.10743974 -0.0149581935 -0.06903034 0.0030983195 0.016877417 0.026559621
0.12925787 0.11469978 -0.0667607 -0.076369986 -0.09353734 0.124328054 0.039166216 0.04015457
-0.0013762298 0.09766475 -0.07031206 -0.13392432 -0.15105724 -0.08413352 0.045182183 -0.04837612
0.045562245 0.005099641 -0.1017343 0.03785207 0.0122626 0.026956704 0.12745194 0.16172786
-0.083245814 0.11543405 -0.12849176 0.07081984 0.039483715 -0.032614037 -0.08929908 0.10858443
-0.13039614 0.021661334 0.13559702 -0.017316537 -0.089631334 0.17098317 0.038990233 -0.08294464
-0.07936093 0.028655864 -0.012531935 -0.022137878 0.09012423 -0.039518386 -0.03138468 -0.12082122
0.025002098 0.033432238 -0.0006869712 0.058010105 -0.064147815 -0.0969003 0.13470304 0.049357444
0.14460237 -0.05694477 0.118494764 0.043055747 0.014987458 -0.0149049815 -0.131509 -0.016395317
0.042665876 0.024052322 0.11626005 0.00036671848 -0.098726906 -0.09296634 0.106122345 0.06626208
0.04924444 -0.0041480013 0.09060463 0.03594695 -0.004995371 0.04385496 -0.07770669 -0.009412724
-0.087814614 -0.015298981 0.10700557 -0.048893947 -0.009512808 -0.0727097 -0.094613865 -0.113469936
0.02742103 -0.09231821 -0.13538271 -0.13298962 -0.082530424 0.013550386 0.0072288294 -0.024720259
0.12781581 -0.004360752 0.034379266 -0.07683912 0.009872482 0.063271545 0.017545905 0.0737979
-0.113624945 -0.09085965 -0.064455815 -0.050234165 -0.057508443 -0.13258407 -0.026892638 0.059302785
0.08751275 0.039994627 0.054188225 -0.12093093 0.0860638 -0.06578942 -0.059155073 -0.029238952
0.013726544 -0.057154436 -0.00842793 0.055314876 -0.026394987 -0.090273984 -0.17480838 0.0063783396
0.008468211 -0.09966054 0.009231767 0.018827172 -0.032691207 0.004128732 -0.014799718 -0.19508842
0.07410021 -0.010125112 -0.025329683 -0.07248243 -0.009330305 -0.049216256 0.06289614 0.045903094
-0.018824011 -0.019861648 0.006298518 -0.09551822 0.09831286 -0.07873231 -0.09178027 0.021200802
-0.09596333 -0.06879885 0.055639774 0.023652643 0.06459643 -0.009117792 -0.006603514 0.04595246
-0.07571941 -0.07928643 0.069876105 -0.07111946 0.016398383 -0.033681635 0.02382676 -0.008763406
0.08752692 0.039176546 0.08339482 0.06914892 0.021377297 -0.029346492 -0.06124185 0.011615338
-0.11637553 -0.044162225 -0.11466226 0.06609669 0.104864165 0.041971147 -0.0019926287 0.002911684
-0.11436498 -0.029353602 -0.0034611544 0.07791516 0.034968823 -0.059216075 -0.024278106 0.092180684
0.08596751 0.067029595 0.03674948 0.0921236 -0.047336273 0.10797049 -0.14557663 -0.045895047

network_body._body_endoder.seq_layers.0.bias f4 [128]
00000000: 29a0 72bc e262 843d 45ba 0a3d c8da 5d3e
00000010: 0a6d f7bc 2821 d6ba 4dd1 233e ac10 dcbd
00000020: cfd3 6a3d 8874 b6bb 337b 17bc d6d9 1d3e
00000030: ed9e c13b 5d1c 45bb ec5c 0abe 4e2d 7d3e
00000040: 80cd 0f3b 8343 be3c 75ab 033d 7aae d6bb
00000050: a83d 443d 2c74 3e3d cfa7 943c 0311 aebd
00000060: 4129 933a af48 123e 1270 523d eade cc3c
00000070: 0a30 d6bb 8802 a5ba faf3 3cbd 4211 fbbd
00000080: fffc 9bbd a56f f13c 5b8f 64bd 45e1 99bb
00000090: 8424 2bbd 449b d3bd bb96 f1bc 0786 b8bd
000000a0: ef1d 963c e9fe a1bc a817 9f3d ed30 15be
000000b0: 2bee 733d fe9a a6bb fc56 0a3c 1b1b 7f3a
000000c0: f84e f13d 44c1 c63b 4de6 513c 93f5 7a3d
000000d0: 6fbc 9f3b 40cc da3b 8d70 26bd 7b5f b4bc
000000e0: 5e42 4b3d 9674 51bd bc77 2dbe 68a4 b33d
000000f0: e07c 14bd 868d 803d 3ebc dd3d f0b8 b53d
00000100: 1c56 6bbc df05 3a3d 7100 b43c 3de2 3b3c
00000110: f143 633a d104 14bd a634 30ba f026 7a3d
00000120: d140 973d ab1b 213d 06e6 8d3c c81f 963d
00000130: 7a77 4fbd 1cdb e9bc 1d28 183d 5976 96bd
00000140: 7abe a8bd 4218 143d 636c 11be 5bd5 233e
00000150: 3791 343d e724 123c 7f6a 9cbd a656 b23c
00000160: cc36 b43d 03ce 263a 4585 adbd 57e6 d83b
00000170: 7662 55bd f58e cc3d 9a22 d83b d34f e73b
00000180: 4966 4c3d 62c1 fc3d 75fc 65bd 76b9 9c3c
00000190: 7fe4 6c39 039d b9bd 3595 05be 10c9 a0bd
000001a0: b857 09bc 233c efbc d579 083d a6b5 943d
000001b0: f124 ddbc af17 fa3d 300a 85bd afaa c73d
000001c0: e260 3abe 67de 8cba 2b67 4c3d 42b4 c93d
000001d0: e6c1 963d 3103 063e ac48 9dbd 118d 82be
000001e0: b268 3e3d 33e2 fa3b 86ee ce3c f975 1d3d
000001f0: 6a13 453d dc63 01bd a6d4 703c a7b8 6bbe
-0.014808693 0.06464173 0.033869047 0.2166549 -0.030203361 -0.0016336786 0.1599781 -0.107453674
0.057330903 -0.005568091 -0.009245682 0.15415129 0.005908838 -0.003007672 -0.1351201 0.24724314
0.0021942556 0.023225551 0.032145936 -0.006551561 0.047910362 0.04649751 0.018146424 -0.084993385
0.0011227505 0.14285539 0.05137641 0.025008637 -0.0065364884 -0.0012589255 -0.04613111 -0.12259151
-0.076166146 0.029472182 -0.055800777 -0.0046960437 -0.04178287 -0.10332349 -0.02949082 -0.09009939
0.01832482 -0.019774871 0.07768184 -0.14569445 0.059553307 -0.0050843945 0.00844359 0.0009731517
0.1178264 0.0060655195 0.012811256 0.061269354 0.004874758 0.0066771805 -0.04063468 -0.022018185
0.04962384 -0.051136576 -0.16940206 0.087715924 -0.036251903 0.062769935 0.1082692 0.08873165
-0.014363792 0.045415755 0.021972867 0.011467514 0.0008669487 -0.036137406 -0.00067217124 0.06107229
0.073854096 0.039333027 0.017321598 0.073302805 -0.05065105 -0.028546862 0.03714763 -0.07346792
-0.082394555 0.036155947 -0.14201503 0.15999357 0.0440838 0.008919931 -0.076375 0.021769833
0.08799514 0.00063630956 -0.08472685 0.0066192555 -0.052095853 0.099882044 0.0065959217 0.0070590763
0.049902234 0.12341572 -0.056148965 0.019131403 0.00022591835 -0.09063151 -0.13045199 -0.0785085
-0.00838273 -0.02920348 0.033319313 0.07261209 -0.026995154 0.122115485 -0.06496084 0.09749352
-0.1820102 -0.0010747433 0.049903076 0.098488346 0.07361202 0.13087155 -0.07679877 -0.2549825
0.046486564 0.0076563596 0.025260221 0.038442586 0.048114218 -0.031589374 0.014699137 -0.23019658

network_body._body_endoder.seq_layers.0.weight f4 [128, 8]
00000000: 3728 113f 5bf5 b33d 3325 153e b4d3 ae3d
00000010: ac52 2dbf 42c5 1b3c 2e11 b33d 2aec 04be
00000020: 0824 7fbd 3961 2dbf 5954 b5be 6848 203f
00000030: e1a7 033f f20d e93e 2462 8cbe c9d5 6b3f
00000040: b098 8abd e50c a03e 2549 463d d245 853e
00000050: dfdb 963e 7945 aa3e cb04 a6be 8b51 f93e
00000060: 92b0 78bd 3e07 133f d2a1 42bd 4930 0e3e
00000070: 154b 4b3f a6c5 05b8 8008 9c3e 3ec8 403e
00000080: eb8c c4bd e0de c2be e0b4 23be 564f b13e
00000090: 2a87 bd3e fddc 653d e4fb 933e a43b 7fbd
000000a0: a195 41be 4330 693c 5d48 cabd 2fe9 1c3f
000000b0: 80a1 c13e 0b3a 04be ef2d aa3e 0471 3abe
000000c0: f496 8ebe f18f fb3e a1b4 063f 3f24 093f
000000d0: 1949 a33e 676c 80be 91bb 3e3e e849 84be
000000e0: 3259 15be fa45 8f3e 9743 1dbe d778 fdbe
000000f0: 4f81 bc3d 3527 53bd e8c0 08bf 1841 6a3b
00000100: b6f2 24be 1c1b 743e 80d7 24bf 4f65 99bb
00000110: a53f 013f 64ed d63c 0a62 4cbe c246 eb3e
00000120: 1c3f d2be b52b 06bf 7ec4 323e 8e49 ca3e
00000130: 7f25 aa3e 73ad ce3e 74a6 063c 9df0 25bf
00000140: 9bec cfbe 2b5b 85bd 6386 7a3e 01e9 1d3f
00000150: 9611 45bf 3895 edbe 1ae0 593e f3fa c73e
00000160: 85dd 2a3f 7c54 533e dab6 02bd c8e1 26bf
00000170: cb3b 983d d933 e53d 9331 343e de48 5cbe
00000180: f478 71be de66 cfbe 2f8c 0b3b 63a0 523e
00000190: c9ba 72be 95b8 8e3e b676 11bd 688f 2b3e
000001a0: 610f 5a3e 683a 75be 29bd 5c3e 3726 bf3d
000001b0: 7c72 ebbd a5f4 d93e ed1b 8abe a17d aa3c
000001c0: 4cbf 42be 5df6 30bf ed2f a53d dacf e53e
000001d0: 6433 093d e2f4 6bbe 5683 483e 4694 49be
000001e0: 7a90 53bf c0bc 5f3d 28f9 b5bd e2c5 223f
000001f0: 535d 583e f03e 1c3e e65a 9a3e bcb5 a13c
00000200: b0c8 2bbd 773d c3bd 3d42 de3e 3b59 883e
00000210: e483 04bf 4de7 8dbe 10d7 7cbe f4c9 0bbd
00000220: d55d 4a3e 052f d4be e777 7bbe a27e d33e
00000230: ee7b eebd bbb7 8b3e cd3a abbe 817b a7bd
00000240: f2c2 2a3d 4aac d33e 32d2 ae3e 872d 713c
00000250: b985 99be 4934 57be d693 1b3e ade1 e73c
00000260: e69a 7bbe 8639 eb3e f9e5 8abe f9e7 f3bd
00000270: d282 15be 5474 cebd 0d1b da3b 6757 9b3e
00000280: 6308 9ebe da04 823e 34a0 9e3e 2bbb fd3e
00000290: d70b 033d c24a 10be a0d2 a7bb fdf8 9d3d
000002a0: 7b96 6a3e 08bb 773e 87ab 243f 8c55 1fbf
000002b0: 4064 fabe a5de b2be b99b 8e3e b922 8fbc
000002c0: 5606 7fbe 4421 17be fb04 9b3e 1c3f 47bc
000002d0: d771 ad3e 9f28 7dbe b31b 98be 9bbd c03e
000002e0: 6e87 f73d 9199 483d 5c6c a93e 6e53 25bf
000002f0: 59a6 003e 6c49 4cbb ccf5 52be cf33 7a3d
00000300: 5c3d d13e 535f 16be ab19 623e 15a5 02be
00000310: 5364 2cbd 8580 413e 9d42 44be 834d 95bd
00000320: d9c9 0fbf b6c6 cb3e d34b 82bd 93f0 173f
00000330: 2324 e4be 4f2e 3b3e 3fbd aabd deee 783d
00000340: b014 813e 8993 84bc 53a5 09bf e525 a9be
00000350: c0b4 113e cc2e 933d 3197 cfbd fbb9 6cbe
00000360: e014 c5bd e69e f83b 40bd bb3e 44e5 aa3c
00000370: 573b 193e 734b 303e 414e ad3d 7259 3b3e
00000380: 5461 6ebe e8c3 84bc 6c9d c93e 62b6 88be
00000390: 9076 0d3e 9d9a d7be 184e 213e b594 a33d
000003a0: a3d4 7a3e 73c6 a13e 0cd9 aabd 1c4f 18be
000003b0: 91d5 ebbe ca2e c8bc cdde 8cbe 8e68 3c3c
000003c0: 4180 0dbf be57 f43d a30d 8a3e 8e41 da3e
000003d0: b791 763e 9ac1 84be b09b a43e 6b41 17bd
000003e0: bdbe 2cbe e210 d1be b863 ab3e c003 cf3e
000003f0: 710d 4abf 471b fd3e 4733 cebd 4f67 f73d
0.5670199 0.08787032 0.14564972 0.08536473 -0.6770427 0.009507479 0.08743511 -0.12980714
-0.06229022 -0.67726475 -0.35415915 0.62610483 0.5142804 0.45518452 -0.27418625 0.92123085
-0.06767404 0.31259838 0.0484096 0.2602983 0.29464623 0.33256128 -0.32425532 0.48695025
-0.060715266 0.57432926 -0.047517605 0.13885607 0.7941144 -3.1893745e-05 0.30475235 0.18826386
-0.095971905 -0.38060665 -0.15986967 0.3463084 0.37017184 0.056118954 0.28903115 -0.062312737
-0.18904735 0.014232698 -0.098770835 0.6129331 0.37818527 -0.12912767 0.3323817 -0.18207175
-0.27849543 0.49133256 0.5261937 0.5357093 0.31891707 -0.25082704 0.18626238 -0.25837636
-0.14584807 0.27983075 -0.15357815 -0.49506256 0.09204351 -0.051551063 -0.5341935 0.0035744365
-0.16108212 0.23838466 -0.64391327 -0.0046812664 0.5048774 0.026236244 -0.19959274 0.4595242
-0.41063774 -0.5241044 0.17457768 0.39509243 0.33231732 0.40366706 0.008218396 -0.6482027
-0.40610203 -0.065115295 0.24465327 0.6168366 -0.7697996 -0.46402907 0.21276894 0.39058647
0.6674426 0.20637697 -0.031912662 -0.65188265 0.074332796 0.1119153 0.17597036 -0.21512172
-0.23581296 -0.4050817 0.0021293273 0.20568995 -0.23704065 0.278752 -0.035513602 0.16753924
0.21294929 -0.23948061 0.21556534 0.09333461 -0.114964455 0.4256946 -0.2697443 0.020811858
-0.19018286 -0.6912592 0.08065782 0.4488514 0.033496276 -0.23042634 0.1958135 -0.19685468
-0.8264233 0.054623365 -0.088854134 0.63583195 0.2112935 0.15258384 0.30147475 0.019739978
-0.041939437 -0.09533208 0.4340991 0.26630577 -0.5176375 -0.2771553 -0.24691415 -0.034128144
0.19762357 -0.41442123 -0.24557458 0.4130755 -0.116447315 0.27288613 -0.334433 -0.081778534
0.04168982 0.41342384 0.3414474 0.014720327 -0.29984835 -0.21016039 0.15193114 0.028305853
-0.24570808 0.45942324 -0.2712858 -0.1190948 -0.14600685 -0.100807816 0.0066560567 0.3034012
-0.30865774 0.25394326 0.309816 0.4955686 0.031993713 -0.14091018 -0.005121544 0.07713506
0.22908966 0.2419244 0.6432423 -0.6223991 -0.4890461 -0.3493549 0.27853182 -0.017472612
-0.2490476 -0.14758784 0.30277237 -0.012161043 0.33875915 -0.24722527 -0.29708633 0.37644657
0.12086378 0.048974577 0.33090484 -0.6458043 0.12563457 -0.0031171693 -0.20601577 0.061084565
0.40867126 -0.14684801 0.22080104 -0.12758286 -0.042087864 0.18896683 -0.19166036 -0.07290175
-0.5616737 0.39800042 -0.063621186 0.5935146 -0.4455882 0.18279384 -0.08336877 0.060774677
0.25211096 -0.016183631 -0.5376789 -0.33036724 0.14229107 0.0718666 -0.10136259 -0.23117821
-0.09623122 0.0075873015 0.36667824 0.020861275 0.14964043 0.17216282 0.084621914 0.1829584
-0.23279315 -0.016206697 0.39377916 -0.26701647 0.13814759 -0.42110148 0.15752447 0.07987348
0.24495177 0.31596717 -0.0834218 -0.14873928 -0.46061376 -0.024436373 -0.27513734 0.011499537
-0.55273825 0.11930798 0.2696353 0.4262814 0.24079023 -0.25928956 0.3215003 -0.03692762
-0.16869636 -0.40833193 0.33474517 0.4043255 -0.7892676 0.49434873 -0.10068374 0.120802514

network_body._body_endoder.seq_layers.2.bias f4 [128]
00000000: 4de3 0c3d 530a 53bd fc62 be3d 3c30 323d
00000010: fef1 94bd c83a 7b3d 6d37 e13b 6a03 043e
00000020: 08e9 013e a7bf c73c dd93 9a3d c560 a9bc
00000030: 3825 d8bc 81bc 0fbd d28f c23d b57a ab3d
00000040: 063b 223c c5f5 a3bd 1611 ea3d d5b8 dd3d
00000050: 0f5e 98bc 135c a73c 90aa ba3d 1208 233d
00000060: 9fdb 213e fc70 a03d 44bc 083d f8e5 b1bc
00000070: 69f2 22bd 98b7 873d 3701 ec3d e007 a63d
00000080: 73b7 293d e625 e13d 9cf2 123d 9db4 063e
00000090: 91a1 6ebb 8836 ac3d 929b 1c3e 33d4 4c3d
000000a0: 06c9 bc3d a6a1 2abc 8bc4 bf3b 8123 173e
000000b0: ee9f 573d 6c0e f33d 2852 d93d d410 94bc
000000c0: 4316 d63d f2ff febc 1dd4 133e d654 073d
000000d0: 06e4 e3bb f25d 8d3d 3590 0f3e a847 db3b
000000e0: 9c48 f63d f93c 6c3d 44d4 a0ba 7703 2cbd
000000f0: 5de7 973d 5df0 f63d 25f4 e23c 08ff 2e3e
00000100: 8d8f 36bd 6f0d 0b3e 7bc0 dc3b 931e dc3d
00000110: 5d1b 813d d0f5 a13c 797e 1b3d 69b4 b73c
00000120: a45c fa3c f5f6 8cbc db17 833d 8be4 34bc
00000130: e2e6 663d 7fc8 913c e2d1 13bc 2059 363e
00000140: 137b df3b e191 d83d 4b01 3a3c 87fa 3d3c
00000150: 01ea 2b3d c239 01bd 840a 943b 5905 243e
00000160: 09ab bf3d b7c4 4d3d 4861 203e 65aa 42bd
00000170: 9cef 013c 4151 ef3d c7b5 303b 9e1e 10bd
00000180: 6a46 2bbc 7652 213b 32af c9bc e769 4a3d
00000190: 5490 c43d 071b bebc e2ec b9bb 4e62 2d3d
000001a0: 1243 f23d 50ab 20bd 2af9 063e 1395 5e3d
000001b0: f120 013e 4d4f a93d 96a8 103e ea2f 753d
000001c0: 942a 543d 71bd bfbd 0357 283e e39d 9d3b
000001d0: 2ce7 cfbc fd92 0e3d 6795 073e 83e6 68bd
000001e0: 2318 ea3d 0b71 0b3c 96e9 8b3d 9737 013e
000001f0: 5f86 6f3b da81 d43d c396 263e 18db 533a
0.03439646 -0.051523518 0.092962235 0.04350303 -0.07272719 0.061335355 0.0068730623 0.12891927
0.1268655 0.02438338 0.07547734 -0.020676026 -0.026384935 -0.03509188 0.09500088 0.08373014
0.009901768 -0.08005861 0.1142904 0.108262695 -0.018599538 0.020429647 0.091145635 0.03980262
0.15806435 0.0783405 0.03338267 -0.021716103 -0.03978196 0.066268146 0.11523669 0.08106971
0.041434716 0.10993557 0.0358759 0.13154836 -0.003641222 0.084088385 0.1529372 0.050007056
0.0921803 -0.010414517 0.005852287 0.14759637 0.052642755 0.11867985 0.10611373 -0.01807443
0.10453465 -0.031127904 0.14436384 0.03303989 -0.0069546727 0.06902684 0.14019854 0.0066918917
0.12025568 0.057675336 -0.0012270291 -0.04199549 0.07417176 0.120575644 0.027704308 0.17089474
-0.044570494 0.13579343 0.0067368126 0.10748019 0.06304047 0.019770533 0.03796241 0.022424893
0.030561753 -0.017207602 0.064010344 -0.011040817 0.05637253 0.0177958 -0.009022208 0.17807436
0.0068200915 0.10574699 0.011352847 0.011595375 0.04197121 -0.031549223 0.004517855 0.16017665
0.09358794 0.05023643 0.1566211 -0.047525782 0.0079306625 0.1168542 0.0026963816 -0.03518545
-0.0104538 0.00246158 -0.024619672 0.049417403 0.09597841 -0.023206247 -0.0056739906 0.04233008
0.11829199 -0.039225876 0.13180986 0.054341387 0.12610222 0.082670785 0.1412681 0.059860148
0.05179842 -0.09362305 0.16439442 0.0048100813 -0.025378786 0.034808148 0.13240586 -0.056860458
0.11430385 0.008510838 0.06831662 0.12618862 0.0036548597 0.1037633 0.16268449 0.0008081659

network_body._body_endoder.seq_layers.2.weight f4 [128, 128]
00000000: c5cb 31bd 0320 48be 7ba5 0d3e b4b6 c23d
00000010: aade a339 ff49 233e 0314 e0bc deae adbb
00000020: 769d 3f3d 285d c33d 6daa 373d 7a7f 9fbe
00000030: 86e4 223e a14e 013d 9c19 40bc 16cd 2c3e
00000040: 4529 343d cb33 aabd d5ad 503d 070c 29be
00000050: 6c09 fe3d ef1e 9abd 5712 793d 8992 e2bc
00000060: 57b4 7abd e2d6 1f3e 5701 5abd 67e5 0a3e
00000070: b501 c23d f391 27be 3186 a63c 783c 2b3e
00000080: f50c 0ebd f00a 013e d570 00bd 8d24 07be
00000090: 0f34 d13d e37d 5ebe 22e5 4c3d e7d7 45be
000000a0: 1e2e 59bd 709c 96bd c113 673d 3a03 423e
000000b0: 2a6e 7ebe 8b93 04bb 0e09 24bd d686 aa3d
000000c0: 097c 14be b6f9 f5bb ab65 e03c dae1 2dbd
000000d0: 52a7 613c d733 c53c a7a5 943d 9b25 9a3d
000000e0: 4811 3b3e f36e e73b 2f14 c2bd 799f 1b3d
000000f0: 8130 15bd 2088 9e3d 7c89 73be fdd9 343e
00000100: 94e1 0cbe 6f80 4a3d 341e a53d 220c ecbc
00000110: ddd7 c3bd c831 19bc 04be 1b3e 5773 a43d
00000120: 1ba5 d03d 93b4 c2bd 8468 08be 6f67 683e
00000130: be0d f13d 4db0 56bd 636b 323e 9eb7 633b
00000140: 47d6 67be 0649 813e 7da8 be3d 092e 3abe
00000150: 5886 983c d550 14be a5c4 a83c e446 ad3d
00000160: 7aa7 17be a661 093e f103 413c 2668 433d
00000170: 25c1 733d 58ae 45be a7d6 cc3d f88e 11be
00000180: e26b 99bd 52c6 aebd a284 543d b7e6 f33d
00000190: a88e 6d3b a6de 87bd 7eb5 acbb 682d c6bd
000001a0: d31e d93c fc77 4ebd 1e35 d83c e633 7b3d
000001b0: 6dbf 90bd 7367 b53c c0f8 00be a9c2 82bd
000001c0: edaf 30bc 80f8 da3d 11ff f63c b062 ff3c
000001d0: 31ea 23be 8182 9b3d 14ac 043e 1e24 7d3d
000001e0: ac5e d1bd c027 503d 0436 6dbd 9f58 643e
000001f0: c138 853e f65c 983d 742a 90be 5af9 a73d
00000200: 7905 1cbd a5c9 9fbd 07e6 febb 9dfd 71bc
00000210: 3490 12be 1e14 143e ab5c 7f3c d2cb 16bd
00000220: 60be 1bbd 504c 07be 4500 1a3e 2530 a33d
00000230: 4040 aebd d719 68be c4ef 043c e77f 8f3c
00000240: eea8 1c3d 51c0 06be d379 a1bd 9b10 133e
00000250: 588c 313d e2cf 7d3d c241 a03d 52a9 23be
00000260: e51e 11be 8bbb 16be 02c5 e0bd 3994 88bd
00000270: e4b2 293e 953e 6fbe b1de 963d 7685 67be
00000280: 4f96 19be 91c9 bc3d 18e0 c43d 7efe 8cbe
00000290: 453e 24be 64e3 323d 94e6 89be d97e 83bd
000002a0: e8ed 8ebd a921 4abc aa1a 8e3d ef09 2a3e
000002b0: b85d f2ba c3d1 f8bd 38d5 0bbe ba85 ac3a
000002c0: 9a65 7d3d cfa5 543d 8bcd 09be 99d3 41be
000002d0: 3563 0b3e 86b0 083e 43f9 f1bc e7cb e63d
000002e0: 3698 f03d 5767 6bbd 9806 c03c 9734 ecbd
000002f0: 034b 57bd 5372 ca3d d706 e8bd 9428 a6bd
00000300: 8897 c63d 5733 0bbc 35bb 17be be91 133d
00000310: 28fb bbbd 5f12 ce3c 871e 36bd e802 5dbe
00000320: 9d09 163d b10c f6bb 3b92 c9bd dbdd c93b
00000330: 2d3e 51bd c2d5 ffbc acc5 72be 9824 1bbd
00000340: 578b 6b3d b32f a3bd cda1 40bd fbbb cbbd
00000350: ade4 0a3e 372a 273e 4bf4 5bbd 0c28 56bd
00000360: ffa2 f93a ac57 5cbe d4b3 a0bd e14c e6bc
00000370: 78e4 11be 0f30 52be 366b 94bd a0a7 d6bb
00000380: 8f2f 25be b286 00be be39 78bd f623 17bd
00000390: 078d 54bd 7f05 24be 210a 9c3d 9ad2 a1bd
000003a0: 60af 55be cfde 283e 252a 82be ec55 f2bc
000003b0: 553f 0b3e 9416 0e3d c0ff 353b 787d 133b
000003c0: 6c39 e7bd d0a9 7c3d 6608 02bd e6e3 d7bd
000003d0: 52b4 37be 05a2 923c 2b68 91bd d828 2abe
000003e0: 0525 8fbe 62d3 41bd 7cf3 9b3b 5520 083e
000003f0: c528 32bc cda3 f33d b560 b7bc 3f2c cdbd
-0.04340722 -0.19543462 0.13832657 0.09507504 0.0003125568 0.15946196 -0.027353292 -0.005300387
0.046781026 0.095392525 0.044840265 -0.31151944 0.15907487 0.031569127 -0.011724856 0.16875109
0.04398467 -0.0831066 0.05094703 -0.16508494 0.12404141 -0.07525431 0.060808506 -0.027657764
-0.06120714 0.15609315 -0.053223934 0.13564073 0.09472982 -0.16364269 0.02032766 0.16722286
-0.034680326 0.12601829 -0.031357605 -0.13197537 0.102150075 -0.2172771 0.050023206 -0.19320641
-0.053022496 -0.07354057 0.056415323 0.18946543 -0.24846712 -0.0020229544 -0.040047698 0.08326499
-0.1450044 -0.0075065745 0.027392229 -0.042451717 0.013772802 0.02407257 0.07258158 0.07526704
0.18268311 0.0070627867 -0.09476506 0.03799388 -0.03642321 0.077408075 -0.23782915 0.17661281
-0.13757926 0.04943889 0.080624014 -0.02881438 -0.09562657 -0.009350248 0.15209204 0.08029812
0.10187741 -0.09507098 -0.1332112 0.22695707 0.11770199 -0.052414227 0.17423777 0.0034746896
-0.22640334 0.25251025 0.0930948 -0.18181624 0.018618748 -0.1448396 0.02060158 0.08460787
-0.14809981 0.13416156 0.011780725 0.047706746 0.05951037 -0.19304788 0.10001879 -0.14214694
-0.0749128 -0.0853392 0.0518843 0.1190924 0.003624836 -0.06634264 -0.005270659 -0.09676629
0.026503956 -0.050407395 0.026392516 0.06132879 -0.070677616 0.022144055 -0.1259489 -0.06384785
-0.0107841315 0.10691929 0.030150922 0.031174988 -0.16007306 0.07593251 0.12956268 0.061802022
-0.10223135 0.05081916 -0.05791284 0.22299431 0.26019862 0.07439606 -0.2815739 0.08201857
-0.038091157 -0.078021325 -0.0077788862 -0.014769939 -0.14312822 0.14460799 0.015586059 -0.036815472
-0.038023353 -0.13212705 0.15039165 0.07968167 -0.085083485 -0.22666107 0.008113805 0.017517043
0.03824704 -0.131593 -0.07884564 0.14361803 0.043346733 0.06196583 0.07825042 -0.1598256
-0.14171942 -0.1471998 -0.10975076 -0.06668896 0.16572148 -0.23363717 0.07366694 -0.22609505
-0.14998744 0.09218133 0.09613055 -0.27537912 -0.16039379 0.043673888 -0.2693373 -0.06420679
-0.06978971 -0.012337127 0.069386795 0.16605352 -0.0018491065 -0.12149384 -0.13655555 0.0013162412
0.061864473 0.05191594 -0.13457315 -0.18928374 0.13612063 0.13348588 -0.029537803 0.1126936
0.11747782 -0.0574716 0.023440644 -0.11533468 -0.05256177 0.09885087 -0.113294296 -0.081132084
0.09696871 -0.008496127 -0.14817508 0.036027662 -0.09178764 0.025155244 -0.044462707 -0.2158314
0.03663026 -0.007508837 -0.098423444 0.0061604804 -0.051084686 -0.031229857 -0.23708218 -0.037876695
0.05750593 -0.07968082 -0.047029305 -0.09947964 0.13563795 0.16324697 -0.053699773 -0.052284285
0.0019045769 -0.21517819 -0.078467995 -0.02811283 -0.1424731 -0.20526145 -0.07247011 -0.006550744
-0.16131423 -0.12551382 -0.060601942 -0.03689953 -0.051892307 -0.16017722 0.076191194 -0.07901497
-0.20867682 0.16491245 -0.2542278 -0.029581986 0.13598378 0.0346895 0.0027770847 0.0022505205
-0.11290249 0.061685383 -0.03174629 -0.10541515 -0.1793988 0.017899523 -0.070999466 -0.16617143
-0.2795793 -0.04732073 0.00475925 0.13293584 -0.010873978 0.11896477 -0.02238498 -0.10018205
